…
ecution":{"iopub.status.busy":"2023-02-24T16:17:50.270926Z","iopub.execute_input":"2023-02-24T16:17:50.271323Z","iopub.status.idle":"2023-02-24T16:17:50.283689Z","shell.execute_reply.started":"2023-02-24T16:17:50.271284Z","shell.execute_reply":"2023-02-24T16:17:50.282614Z"},"trusted":true},"execution_count":7,"outputs":[{"name":"stdout","text":"Model: \"sequential\"\n_________________________________________________________________\nLayer (type)                 Output Shape              Param #   \n=================================================================\nconv2d (Conv2D)              (None, 238, 238, 32)      896       \n_________________________________________________________________\nmax_pooling2d (MaxPooling2D) (None, 119, 119, 32)      0         \n_________________________________________________________________\ndropout (Dropout)            (None, 119, 119, 32)      0         \n_________________________________________________________________\nconv2d_1 (Conv2D)            (None, 117, 117, 64)      18496     \n_________________________________________________________________\nmax_pooling2d_1 (MaxPooling2 (None, 58, 58, 64)        0         \n_________________________________________________________________\ndropout_1 (Dropout)          (None, 58, 58, 64)        0         \n_________________________________________________________________\nconv2d_2 (Conv2D)            (None, 56, 56, 128)       73856     \n_________________________________________________________________\nmax_pooling2d_2 (MaxPooling2 (None, 28, 28, 128)       0         \n_________________________________________________________________\ndropout_2 (Dropout)          (None, 28, 28, 128)       0         \n_________________________________________________________________\nflatten (Flatten)            (None, 100352)            0         \n_________________________________________________________________\ndense (Dense)                (None, 128)               12845184  \n_________________________________________________________________\ndense_1 (Dense)              (None, 64)                8256      \n_________________________________________________________________\ndense_2 (Dense)              (None, 6)                 390       \n=================================================================\nTotal params: 12,947,078\nTrainable params: 12,947,078\nNon-trainable params: 0\n_________________________________________________________________\n","output_type":"stream"}]},{"cell_type":"code","source":"history = model.fit_generator(generator=train_dataset, steps_per_epoch=len(train_dataset), epochs=12, validation_data=
…
